model.tflite (tflite, 741824 bytes, 16 tensors)

sequential_2/conv2d/Relu;sequential_2/conv2d/BiasAdd;sequential_2/conv2d/Conv2D;sequential_2/conv2d/BiasAdd/ReadVariableOp f4 [32, 3, 3, 3]
0	0x39744646	0.00023295832
1	0xb99fbb30	-0.0003046631
2	0x38b24474	8.500452e-05
3	0xb7e181f0	-2.6882597e-05
4	0xb918b80d	-0.00014564414
5	0xb9e3bdc0	-0.0004343819
6	0x395f523e	0.00021297575
7	0x39d7f398	0.00041189487
8	0xba06517e	-0.00051238376
9	0xb9906d35	-0.00027547186
10	0xba11894c	-0.000555177
11	0xb9c50af3	-0.00037582926
12	0xb9874171	-0.00025797964
13	0xb8e550a1	-0.00010934589
14	0x398f9ec6	0.0002739338
15	0xb9ba623c	-0.00035549875
16	0xb9bed4a3	-0.0003639805
17	0xba02cb08	-0.00049893605
18	0xba23db15	-0.00062506023
19	0xb9ee828c	-0.00045492162
20	0xba05cf3b	-0.0005104427
21	0x3916a489	0.00014366409
22	0xba04d5fe	-0.0005067288
23	0x38e0bf89	0.000107168285
24	0x39ad2baf	0.00033029678
25	0xb9387689	-0.00017591765
26	0xb9d7bba5	-0.00041147802
27	0xb91f12ae	-0.0001517038
28	0x3705b136	7.968678e-06
29	0x39a0b107	0.00030649474
30	0x399c8a31	0.000298576
31	0x3985cb33	0.00025519132
32	0x38444de9	4.68026e-05
33	0xb971e587	-0.00023069057
34	0xba124a53	-0.0005580533
35	0x39e08b4d	0.00042828397
36	0xb8fd498b	-0.000120776785
37	0xb8cdccbf	-9.813299e-05
38	0xb949d6dc	-0.00019248895
39	0x399c8501	0.00029853734
40	0x3904653e	0.00012626217
41	0xb999c98f	-0.00029332607
42	0xb9a366b8	-0.00031166314
43	0xba003b00	-0.0004891604
44	0x39d84135	0.00041247313
45	0x38f8934c	0.00011852998
46	0x396ed0bc	0.00022775208
47	0xb9d75f5f	-0.00041079053
48	0x3a023c69	0.0004968108
49	0xb887d494	-6.4768974e-05
50	0x3a0e9cb2	0.00054402195
51	0xba206d63	-0.00061198155
52	0xb9e2382a	-0.00043147925
53	0x3890a5ca	6.897336e-05
54	0xb81925fc	-3.651342e-05
55	0xb948f001	-0.00019162895
56	0xb90d7b90	-0.00013492838
57	0xb80076da	-3.0628267e-05
58	0x39e11136	0.00042928167
59	0xb8f96217	-0.00011891516
60	0xb838be46	-4.4046225e-05
61	0xba0c0410	-0.00053411815
62	0x36eb021a	7.0037904e-06
63	0xb835d20d	-4.3349388e-05
64	0xb95a91c0	-0.00020844396
65	0xb99657b1	-0.00028675565
66	0x3a07e5b2	0.00051840686
67	0xb6fc3405	-7.516241e-06
68	0xb9ff23bd	-0.00048664017
69	0x39b4bd2b	0.00034473217
70	0x39602f46	0.00021379915
71	0x39a7dc61	0.00032016917
72	0x399b6cf7	0.0002964509
73	0x39bd6a2e	0.00036128
74	0xb9022a00	-0.00012413412
75	0x38b95421	8.837158e-05
76	0xb986b27f	-0.00025691462
77	0x35fe7e83	1.8961294e-06
78	0xb9dd03fe	-0.0004215538
79	0xba125302	-0.0005581827
80	0xb9c6d456	-0.00037923706
81	0xb9149d1f	-0.00014172912
82	0xba0f5503	-0.0005467685
83	0x39995958	0.00029249
84	0x39843833	0.00025218874
85	0xb9d53807	-0.0004066827
86	0x39c45182	0.0003744476
87	0xb98cc5c4	-0.00026850228
88	0x39a1d373	0.00030865855
89	0x39e437f0	0.00043529226
90	0xb909ba30	-0.00013134698
91	0xb98e2164	-0.00027109229
92	0x39e3f1d6	0.00043476996
93	0x3980d63e	0.00024573685
94	0x385b32f3	5.226112e-05
95	0x3961f039	0.00021547162
96	0x3888c90d	6.522434e-05
97	0x39b9d1ec	0.00035442354
98	0x38bf4b37	9.1215996e-05
99	0xb9dadc8d	-0.00041744523
100	0x3806c6c1	3.2133194e-05
101	0x39bed8bd	0.00036401107
102	0xb976c220	-0.00023532705
103	0xb9ad68ac	-0.00033075118
104	0x3973b265	0.00023240743
105	0x3961f55b	0.00021549074
106	0x38714529	5.7523288e-05
107	0x39178ef0	0.0001445373
108	0xb8bb2811	-8.924318e-05
109	0xb9b34f5c	-0.00034200668
110	0x3979600c	0.00023782271
111	0x395b5717	0.00020917911
112	0xb894910b	-7.084206e-05
113	0xba0589df	-0.0005094092
114	0xb9182f85	-0.00014513552
115	0x39043549	0.00012608351
116	0xb750b82e	-1.2440649e-05
117	0xba00d0ac	-0.0004913907
118	0x394411b3	0.0001869861
119	0x39353e14	0.00017284631
120	0xb810b0c1	-3.449689e-05
121	0xb92f175b	-0.00016698001
122	0x39d5ef45	0.00040804796
123	0xb96ca20a	-0.00022567078
124	0x39edaa0e	0.00045330863
125	0x39f4421f	0.0004658857
126	0xba26431f	-0.0006342399
127	0x37e742fb	2.7568536e-05
128	0x3a0169ae	0.0004936707
129	0x39d3b1dc	0.00040377572
130	0x389556dc	7.1210525e-05
131	0xb99a7272	-0.00029458437
132	0xba0d4b28	-0.00053899223
133	0xb83f8afc	-4.5667388e-05
134	0x39f7d6f9	0.00047271678
135	0xba10f837	-0.0005530151
136	0xb961c75e	-0.00021531942
137	0x3596af9c	1.122698e-06
138	0xb92e8a3c	-0.0001664543
139	0x3930cdb1	0.00016861294
140	0x39cb980d	0.00038832464
141	0xb9da6169	-0.00041652776
142	0xb990af43	-0.000275964
143	0x39e4e907	0.00043661168
144	0xb981181e	-0.00024622766
145	0x39b1c67c	0.00033907953
146	0xb9bb788f	-0.00035757243
147	0x395a7483	0.00020833504
148	0x39b3f8c9	0.000343269
149	0xb982d12d	-0.0002495138
150	0xb9405ce6	-0.00018345154
151	0x3a062e00	0.0005118549
152	0x3a1949c9	0.00058474817
153	0x38148abd	3.541516e-05
154	0x39db4bd6	0.00041827437
155	0xb9703d8d	-0.00022911113
156	0xb852dc12	-5.0272858e-05
157	0xb9b6504b	-0.00034773568
158	0x3a10ecfe	0.00055284787
159	0xb9d93369	-0.0004142777
160	0xba00e2fd	-0.00049166364
161	0x39d8fd43	0.00041387425
162	0x39db6702	0.00041847682
163	0xb991a46d	-0.00027779062
164	0x39a2ceda	0.00031053164
165	0xb9e82b6e	-0.00044282846
166	0xb895b6a0	-7.13889e-05
167	0xb9f39090	-0.0004645628
168	0x37aa7569	2.0320253e-05
169	0x3892d287	7.001036e-05
170	0xb7b80b0c	-2.1939653e-05
171	0xb8b9ac16	-8.853541e-05
172	0x3998352d	0.00029031318
173	0x392e0b37	0.00016598111
174	0xb9af10d4	-0.0003339114
175	0xb9593fb2	-0.00020718461
176	0xb9b0febf	-0.00033759137
177	0xb91f626a	-0.00015200084
178	0x3a0bda65	0.00053349725
179	0xb82ac325	-4.07129e-05
180	0x39583c8c	0.0002062192
181	0x38d8a4f4	0.000103304075
182	0x39569052	0.00020462394
183	0xb9c415cb	-0.0003740027
184	0x37d52585	2.540905e-05
185	0x39bbe794	0.0003583996
186	0xb950e651	-0.00019922225
187	0x39d87736	0.0004128755
188	0xb9857e0b	-0.00025461646
189	0xb9899b77	-0.00026246507
190	0x399f9281	0.00030435997
191	0xb8f6416b	-0.00011742379
192	0xb6b83a0e	-5.490386e-06
193	0xb981c62b	-0.00024752444
194	0xb97c54a5	-0.00024064125
195	0xb9fa7400	-0.00047770143
196	0xb9af56dc	-0.00033443316
197	0x369822ec	4.5340184e-06
198	0xba2e9852	-0.0006660271
199	0xb801eb92	-3.097539e-05
200	0xb972fbf3	-0.00023172777
201	0x399fae7e	0.0003045685
202	0xb9af7153	-0.00033463034
203	0x3916cb2b	0.000143808
204	0xb876f2b3	-5.8877e-05
205	0x3904a8d9	0.00012651402
206	0xba17f4a8	-0.00057966495
207	0xb9400603	-0.00018312786
208	0x3931f79a	0.00016972274
209	0x372bb128	1.0233642e-05
210	0xb9afa6e9	-0.0003350296
211	0xb9c505b6	-0.00037579023
212	0xb98425d0	-0.00025205174
213	0x39b2c072	0.0003409419
214	0xba135323	-0.00056199933
215	0xb7417753	-1.1531479e-05
216	0xb9ceda22	-0.00039453903
217	0x3963b12f	0.00021714413
218	0x395d102e	0.0002108223
219	0xb9c337e5	-0.00037234943
220	0xb9dc42e1	-0.000420115
221	0x395c7225	0.00021023357
222	0xb8fcb8da	-0.00012050728
223	0x393f050c	0.0001821706
224	0x39b50700	0.00034528226
225	0x3838f688	4.409862e-05
226	0xb99afeba	-0.00029562955
227	0xba1b4ff2	-0.00059246935
228	0xb8185afd	-3.6324363e-05
229	0x39d3296c	0.00040275918
230	0x39c311c0	0.00037206523
231	0xb721e8b5	-9.650529e-06
232	0x376ef0a6	1.4241936e-05
233	0x38cb0719	9.681116e-05
234	0x3972acd2	0.00023143299
235	0x3a00bad6	0.0004910653
236	0x38da5aae	0.000104119405
237	0xb91d6799	-0.0001501128
238	0xb9c75479	-0.00038019175
239	0xb9a7f61d	-0.0003203609
240	0xb83ec262	-4.5480563e-05
241	0x39f169b6	0.00046045863
242	0x38d38a9c	0.00010087082
243	0xb992d4b1	-0.00028005757
244	0x39a3d473	0.0003124807
245	0xb9ead0f0	-0.0004478763
246	0x3828b608	4.022385e-05
247	0xb8b3e65d	-8.578294e-05
248	0xb9943e65	-0.00028275247
249	0x39a2b1f3	0.0003103163
250	0xb9a0c9bc	-0.00030667882
251	0x39e44375	0.00043537808
252	0x39ad15b1	0.00033013293
253	0x399eadb2	0.00030265521
254	0xb9c429e7	-0.00037415253
255	0x39c4505a	0.000374439

sequential_2/conv2d/BiasAdd/ReadVariableOp f4 [32]
0	0x3cf8ee14	0.030386962
1	0xbae3401f	-0.0017337835
2	0xbca51aef	-0.020154445
3	0xbbac174a	-0.0052517997
4	0x3c1b637e	0.00948417
5	0x3c72f9c8	0.01483006
6	0xbc04b4c0	-0.008099735
7	0x3cd3b3cc	0.02584257
8	0xbca1480d	-0.019687677
9	0x3ac7bf64	0.0015239534
10	0x3aefd56b	0.0018297856
11	0xbc62b6dc	-0.013837542
12	0xbd177370	-0.036975324
13	0xb8cef8fa	-9.869221e-05
14	0xbc9f358a	-0.01943471
15	0xbc9ae0e1	-0.018906059
16	0xbc87ba27	-0.016568257
17	0xba139a41	-0.00056305906
18	0xbd1e0324	-0.038577214
19	0x3d0a5c8d	0.03377967
20	0xbca1dccb	-0.019758603
21	0xbc9fae16	-0.01949219
22	0x3d2e3649	0.04253224
23	0xbc5997e9	-0.013280847
24	0xbceea939	-0.029133426
25	0xbbaa0f17	-0.005189787
26	0xbb462350	-0.003023345
27	0x3d69d761	0.057090167
28	0x3b5cf6c9	0.0033716431
29	0xbbca413a	-0.0061723264
30	0xbd1a6890	-0.037697375
31	0xbc9cfb87	-0.019162906

sequential_2/conv2d_1/BiasAdd/ReadVariableOp f4 [64]
0	0xbc9a6ba8	-0.018850163
1	0xbc8ff445	-0.017572531
2	0xbcc21644	-0.023692258
3	0xbc32a85b	-0.010904397
4	0xbc3fc517	-0.011704705
5	0xbb26d15a	-0.0025454373
6	0xbcb05fee	-0.021530118
7	0x3cd7fd9e	0.026366051
8	0x3bc434c3	0.005987735
9	0x3c34235a	0.010994757
10	0xbcaf0507	-0.021364702
11	0xbcbe1687	-0.023204101
12	0xbce7aca0	-0.028280556
13	0xbb0fe2d1	-0.0021955261
14	0xbbf1d19a	-0.007379723
15	0xbc6ce6c3	-0.014459315
16	0x3c37801b	0.011199976
17	0xbd59e09c	-0.05319272
18	0xbc85809a	-0.016296674
19	0xbc482942	-0.012216868
20	0xbcc54a0a	-0.024083156
21	0x3c3121f7	0.0108113205
22	0xbccdb0de	-0.02510875
23	0xbcbf9936	-0.023388486
24	0xbd23eee9	-0.040022764
25	0xbc3e35f2	-0.011609541
26	0xbd09cafa	-0.03364084
27	0xbc72feaa	-0.014831224
28	0xbcd4a404	-0.025957115
29	0xbd15aadd	-0.0365399
30	0xbc8fe280	-0.017564058
31	0xbcdd2b5d	-0.026998216
32	0xbbcff186	-0.0063459305
33	0xbc71db21	-0.014761717
34	0x3d099d69	0.033597384
35	0x3cb78b10	0.022405177
36	0xbc78a9c9	-0.015177199
37	0xbc9a3e84	-0.018828638
38	0xbbc1169a	-0.005892587
39	0xbcd1787e	-0.02557015
40	0xbd3dc8c7	-0.046334054
41	0x3c0882aa	0.008331934
42	0xbcf77186	-0.0302055
43	0xb97889e4	-0.00023702491
44	0xbcb28459	-0.021791624
45	0xbd3a97a6	-0.04555478
46	0xbc1faae7	-0.009745336
47	0xbc40d40a	-0.011769304
48	0xbc0bfcf8	-0.008544199
49	0xbcadc1c3	-0.021210557
50	0xbd22ac74	-0.039715245
51	0xbc8eb917	-0.017422242
52	0xbc931149	-0.017952578
53	0x3d9caa33	0.076496504
54	0xbc896255	-0.016770521
55	0xbcf60c01	-0.03003502
56	0xbc4800c5	-0.012207215
57	0xbd099850	-0.033592522
58	0x3c369bbb	0.0111455275
59	0xbb07d67f	-0.0020727215
60	0x3ba302a8	0.004974682
61	0x3c94d882	0.018169645
62	0x3c4fb9b9	0.012678557
63	0xbbeafbf4	-0.0071711484

sequential_2/conv2d_2/BiasAdd/ReadVariableOp f4 [64]
0	0xbaf59397	-0.0018736002
1	0x3c312e58	0.010814272
2	0xbce1caa2	-0.027562443
3	0xbc469942	-0.0121215
4	0x3c856722	0.01628453
5	0xbc4c5ec9	-0.01247377
6	0xbcbe9b8d	-0.023267532
7	0xbd07cc47	-0.0331538
8	0xbd3b5ca2	-0.04574264
9	0xbbe314e0	-0.0069299787
10	0xbc548bfa	-0.012972826
11	0x3d1356c2	0.03597141
12	0x3befd1a9	0.0073186946
13	0xbc492677	-0.012277237
14	0xbccb4a85	-0.024815807
15	0xbcb19934	-0.021679498
16	0xbcf3497f	-0.029698132
17	0xbd46b86f	-0.048515733
18	0xbc522e2f	-0.012828394
19	0xbcbc0db8	-0.02295576
20	0x3cabe644	0.020983823
21	0xbd1e1b34	-0.03860016
22	0xbcbd8ec8	-0.023139372
23	0xbc864c21	-0.016393723
24	0xbcf8eed9	-0.030387329
25	0xbd112e29	-0.035444412
26	0xbccdca51	-0.025120886
27	0xbcfa3648	-0.030543461
28	0xbbe50b26	-0.0069898544
29	0x3cffc1e3	0.031220382
30	0xbd058e29	-0.032606278
31	0xbd0a1049	-0.033706937
32	0xbc069ce7	-0.008216119
33	0x3c1580b8	0.009124927
34	0xbd3313c6	-0.04372003
35	0x3c920188	0.017822996
36	0xbc36c325	-0.0111549245
37	0xbc783c62	-0.015151115
38	0xbcd58288	-0.026063219
39	0xbd2a8dc2	-0.041639097
40	0xbd04dde7	-0.032438185
41	0xbc4f8c9f	-0.012667804
42	0x3bd7be4f	0.006583966
43	0xbd063c74	-0.032772496
44	0x3cbe3f02	0.023223404
45	0xbcac3fcd	-0.021026516
46	0xba272f40	-0.0006377585
47	0xbc59f499	-0.0133029455
48	0xbb298e04	-0.0025872001
49	0xbc5485b5	-0.012971331
50	0xbd1367e6	-0.035987757
51	0xbc83a043	-0.01606763
52	0x39adc88e	0.00033146556
53	0xbcd70c4a	-0.026250977
54	0xbd12d8eb	-0.0358514
55	0xbc3a8d31	-0.011386202
56	0xbc25fa59	-0.010130488
57	0xbbe4adda	-0.0069787325
58	0xba6bc6c7	-0.00089941587
59	0xbcc87f0e	-0.024474647
60	0xbd18adee	-0.037275247
61	0xbd0df107	-0.03465369
62	0xbcdb1396	-0.026742738
63	0xbce5f3a8	-0.028070286

sequential_2/conv2d_3/BiasAdd/ReadVariableOp f4 [64]
0	0x3d7acf61	0.06123293
1	0xbd305d03	-0.043057453
2	0xbc465e08	-0.01210738
3	0xbc5e393f	-0.013563453
4	0xbca1ad80	-0.019736052
5	0xbce193c9	-0.02753629
6	0x3bb958d8	0.005656343
7	0xbc2ef9b2	-0.010679649
8	0x3ba69280	0.005083382
9	0xbd0ba46c	-0.03409235
10	0xbbb07831	-0.0053854217
11	0xbc080b70	-0.008303508
12	0x3be3504c	0.0069370624
13	0x3c534ba5	0.012896453
14	0xbb5841db	-0.0032998237
15	0x3cd3790d	0.025814557
16	0xb92aa316	-0.00016273218
17	0xbd3b45c5	-0.045720834
18	0xb9e1e375	-0.00043084813
19	0x3c80f19e	0.015740212
20	0xbcd5fc10	-0.02612117
21	0xbc304a7b	-0.010759945
22	0x3b71030d	0.00367755
23	0xbb4e50c8	-0.0031481255
24	0xbc1114be	-0.008855043
25	0xbc4dfe93	-0.012572902
26	0xbd3ac763	-0.045600306
27	0xbc9e11d4	-0.01929561
28	0xbd0041fe	-0.031312935
29	0xbc952080	-0.018203974
30	0xba112306	-0.000553653
31	0xbc03eb63	-0.008051726
32	0x3adaf635	0.0016705455
33	0xbca7b312	-0.02047113
34	0xbae2fcc1	-0.0017317758
35	0x3c119783	0.008886221
36	0xbc09dbf9	-0.008414262
37	0xbcd0670e	-0.025439765
38	0xbc63711f	-0.013881951
39	0x3c9296c9	0.017894166
40	0x3c9baeca	0.019004244
41	0x3c8740bf	0.016510366
42	0xbcc99668	-0.024607852
43	0xbca77baa	-0.02044471
44	0xbd18e23a	-0.03732512
45	0x3d1c521d	0.038164247
46	0x3ca998c0	0.02070272
47	0x3c980cd3	0.018560803
48	0xbccb03cc	-0.024782084
49	0xbc96387d	-0.018337483
50	0x3cabc23a	0.020966638
51	0xbcf84f8b	-0.030311367
52	0xbce2c809	-0.027683275
53	0x3cb2060a	0.021731395
54	0xbc6665a0	-0.014062315
55	0xbcb837c3	-0.022487527
56	0xbc1f2fad	-0.009715957
57	0x39e627a2	0.00043898547
58	0xbd4c10ec	-0.049820825
59	0xbb208744	-0.0024494687
60	0x3c39feaa	0.011352221
61	0xbc291023	-0.010318789
62	0xbccbaff8	-0.024864182
63	0xbca19fa3	-0.019729441

sequential_2/conv2d_4/BiasAdd/ReadVariableOp f4 [64]
0	0x3d488fba	0.048965193
1	0xbd45e0e9	-0.048310194
2	0xbc41597a	-0.011801118
3	0xbd3896da	-0.04506574
4	0xbd340556	-0.0439504
5	0xbc688486	-0.014191752
6	0xbceffc63	-0.029295152
7	0xbd5e53ce	-0.05427914
8	0xbb78f76d	-0.0037989274
9	0xbce60b82	-0.02808166
10	0xbc3d0c62	-0.011538597
11	0xbc8c4d7e	-0.017126795
12	0xbc5ea30a	-0.013588676
13	0xbc30eaab	-0.010798137
14	0xbd4e3b57	-0.05034956
15	0xbcdf2ef0	-0.027244061
16	0xbbe2a059	-0.0069160876
17	0xbc34fdc6	-0.011046832
18	0x3da38d36	0.07985918
19	0xbd165560	-0.036702514
20	0xbca2f407	-0.019891752
21	0xbd10478f	-0.035224494
22	0xbc913945	-0.017727504
23	0x3cda3d03	0.02664042
24	0xbc1cf8e3	-0.009580824
25	0xbd011c4b	-0.031521123
26	0x3d3cd776	0.046103917
27	0xbd184459	-0.037174556
28	0x3d97d39b	0.074134074
29	0x3bf75052	0.0075474167
30	0x3d61f7a4	0.05516781
31	0x3cee930a	0.029122848
32	0xbc94a215	-0.018143693
33	0xbce26682	-0.02763677
34	0xbbbe0523	-0.005798952
35	0x3d6fb1bf	0.05851912
36	0xbd25f41f	-0.040516015
37	0xbb6fd15a	-0.003659329
38	0xbc6d7d4a	-0.014495203
39	0xbbdf8d0e	-0.006822235
40	0xbd1384c1	-0.036015276
41	0x3d0929c9	0.033487115
42	0xbc97d14f	-0.018532423
43	0x3d7e558c	0.062093303
44	0xbcaf9352	-0.021432552
45	0x3c95d7ff	0.018291472
46	0xbc51bb0f	-0.012800946
47	0xbc3a6bdb	-0.011378254
48	0x3cddc674	0.027072169
49	0xbd170d1b	-0.036877733
50	0xbc4f8f19	-0.0126683945
51	0xbd20e6cd	-0.03928261
52	0xbd3b9d13	-0.045804095
53	0xbc25b549	-0.0101140225
54	0xbd3654cd	-0.044514466
55	0xbd5c3c9d	-0.053768743
56	0x3d021c8b	0.031765502
57	0xbcc886fb	-0.024478426
58	0xbc84cae8	-0.016210034
59	0xbd07c7c9	-0.033149514
60	0xbc215a5e	-0.009848205
61	0xbce0ac50	-0.027425915
62	0xbad54235	-0.0016270342
63	0xbcd2e354	-0.025743164

sequential_2/conv2d_5/BiasAdd/ReadVariableOp f4 [64]
0	0xbd126c55	-0.035747845
1	0xbcb92009	-0.022598283
2	0xbd43ea6a	-0.047830977
3	0xbd9962cc	-0.07489547
4	0xbbdc01ad	-0.006714067
5	0x3c9db7ae	0.019252624
6	0xbcff600b	-0.031173727
7	0x3dd6075c	0.104506224
8	0xbcb4c8d7	-0.022068424
9	0xbd57d0fc	-0.052689537
10	0xbbcf278c	-0.006321853
11	0x3dbed24a	0.09317453
12	0xbbe0dc49	-0.0068621975
13	0xbc0663eb	-0.008202533
14	0xbcd91764	-0.026500411
15	0xbcd3c0c6	-0.025848757
16	0xbc1f3cfd	-0.009719131
17	0xbcb3ef53	-0.021964705
18	0xbca7b988	-0.02047421
19	0xbcef7fa1	-0.029235663
20	0xbc04e4c5	-0.0081111835
21	0x3e0b035b	0.13575499
22	0x3da67dee	0.08129488
23	0x3d9b07f0	0.07569873
24	0xbd3756ff	-0.0447607
25	0x3db5f984	0.08885482
26	0xbcfba0b1	-0.030716272
27	0xbc247e17	-0.010039828
28	0xbc7411f6	-0.01489686
29	0xbce4b8d5	-0.027920166
30	0xbc471062	-0.012149902
31	0x3d8c71b5	0.068576254
32	0xbbc508fc	-0.006013034
33	0xbc88c562	-0.016695682
34	0x3db7ddd6	0.08977859
35	0xbc0f5d8f	-0.008750333
36	0xbdc446ee	-0.09583841
37	0x3ca2e934	0.01988659
38	0xbc00c76f	-0.007860049
39	0xbc36c1fe	-0.01115465
40	0xbcd6653f	-0.026171325
41	0x3dfd034c	0.123541445
42	0xbc454240	-0.012039721
43	0x3b4f5440	0.003163591
44	0x3bd887f8	0.0066080056
45	0x3b1bc5af	0.0023768952
46	0xbc17e6a3	-0.009271297
47	0xbcaac2de	-0.020844873
48	0x3b0b7a98	0.0021282788
49	0xbd2fc3a3	-0.042911183
50	0x3daa8071	0.083252795
51	0xbcff9fcd	-0.031204129
52	0xbd12f761	-0.03588045
53	0x3deb3404	0.114845306
54	0x3d87a11f	0.06622528
55	0xbcc27fc6	-0.023742568
56	0xbc0f1efa	-0.008735413
57	0xbca58265	-0.020203779
58	0x3d787c3c	0.060665354
59	0x3deea6aa	0.116528824
60	0xbc652c87	-0.013987667
61	0x3d5513fd	0.052021015
62	0xbcfb71e6	-0.03069396
63	0xbc41efde	-0.011836974

sequential_2/conv2d_1/Conv2D f4 [64, 3, 3, 32]
0	0x3e022fb1	0.12713505
1	0xbdb4feb3	-0.088376425
2	0x3d933874	0.07188502
3	0xbdf930b6	-0.12167494
4	0xbd9231ad	-0.07138381
5	0x3d75c04d	0.059997845
6	0xbd6e2a70	-0.05814594
7	0x3dd19e41	0.10235263
8	0xbdcae458	-0.09906834
9	0xbd8dd3bf	-0.06925153
10	0xbcf7177b	-0.030162564
11	0xbdc240e3	-0.094850324
12	0xbc6e6eea	-0.014552811
13	0x3cc9d0dd	0.024635727
14	0xbcee12a2	-0.02906162
15	0xbdd6743c	-0.10471389
16	0x3cb6c1d9	0.02230923
17	0xbccaf24e	-0.024773743
18	0x3c90113e	0.017586347
19	0x3e157c6b	0.14598243
20	0xbc89deee	-0.016829934
21	0xb99b17dc	-0.0002958168
22	0xbba38a1e	-0.00499083
23	0x3b17fe2c	0.002319227
24	0xbdc019c3	-0.09379914
25	0x3c9ac826	0.018894266
26	0x3bd363cb	0.0064511052
27	0x3bae0c08	0.005311493
28	0xbd403064	-0.04692115
29	0xbda135be	-0.07871579
30	0x3d8ab00b	0.06771859
31	0xbdbaa2e7	-0.091131024
32	0x3c83f904	0.01610995
33	0xbbd24222	-0.006416575
34	0x3da8c87a	0.08241363
35	0xbdd01036	-0.10159342
36	0xbdb3ba74	-0.087757975
37	0xbd549330	-0.05189818
38	0xbcf607d4	-0.03003303
39	0x3dca8cea	0.098901585
40	0xbd26901f	-0.04066479
41	0xbde973d3	-0.11399045
42	0xbda47645	-0.080303706
43	0xbd106597	-0.035253134
44	0xbd640ffa	-0.0556793
45	0xbcca0996	-0.024662774
46	0xbd3a64d0	-0.0455063
47	0x3a54d357	0.00081186503
48	0x3d167240	0.03673005
49	0xbda78422	-0.08179499
50	0xbd292511	-0.041295115
51	0x3e15fa15	0.1464618
52	0x3bc900b4	0.006134117
53	0xbd8afcfc	-0.06786534
54	0x3dc6dd1a	0.097101405
55	0xbd39d61d	-0.04537021
56	0xb79544f8	-1.77943e-05
57	0xbd7be5a8	-0.061498314
58	0xbd109bba	-0.035304762
59	0x3d838aa9	0.06422932
60	0xbe02243e	-0.12709138
61	0x3ca24f76	0.01981328
62	0x3c8dc307	0.01730491
63	0xbd77719c	-0.06041108
64	0x3bcf2d4d	0.006322539
65	0xbd75c2fc	-0.060000405
66	0xbd153be3	-0.036434066
67	0xbdd94028	-0.1060794
68	0xbd67765a	-0.056509353
69	0x3d4f4365	0.05060138
70	0xbd8bf994	-0.068347126
71	0xbd00e2ad	-0.031466175
72	0x3cabfe7e	0.020995375
73	0xbc54f645	-0.012998168
74	0xbcc5773c	-0.024104707
75	0xbcaa5514	-0.020792522
76	0x3da1902b	0.07888826
77	0x3d6e577a	0.058188893
78	0xbd91cab4	-0.07118741
79	0xbbdddff3	-0.0067710816
80	0x3d849a21	0.0647471
81	0xbc8debfe	-0.017324444
82	0x3d2b7fd6	0.04186996
83	0x3d75db58	0.060023636
84	0xbcaa3e5f	-0.020781694
85	0x3b901c07	0.0043978724
86	0x3e15e650	0.14638638
87	0xbd985b70	-0.07439315
88	0x3c6a8ee3	0.014316293
89	0x3bb81cc9	0.005618666
90	0x38cc070f	9.728793e-05
91	0x3d92ef6b	0.071745716
92	0xbd7a8c26	-0.061168812
93	0xbc6f5a4a	-0.014608929
94	0x3d70a878	0.058754414
95	0xbd6ecb8c	-0.058299586
96	0x3ca3c42f	0.019991009
97	0xbddd3096	-0.10800283
98	0x3d82bd1c	0.06383726
99	0xbe1c855a	-0.15285245
100	0xbd39cc1c	-0.04536067
101	0x3da1453a	0.07874532
102	0xbd822be1	-0.063560255
103	0x3dcb45d4	0.09925428
104	0xbd6700bf	-0.056397196
105	0xbc8d3f72	-0.017242167
106	0xbd002907	-0.031289127
107	0xbc5f78a4	-0.013639603
108	0xbcd85d74	-0.02641175
109	0x3d2a854a	0.04163102
110	0xbdaee312	-0.08539404
111	0x3caca6ce	0.021075632
112	0x3cf2d9c9	0.029644864
113	0xbe029b08	-0.12754452
114	0xbc4880eb	-0.012237768
115	0x3d61db5c	0.055140838
116	0x3b0406ba	0.002014561
117	0xbdc2b432	-0.09507026
118	0x3df0ab54	0.11751428
119	0x3d88ebdf	0.06685614
120	0xbc9f04bf	-0.019411443
121	0xbd8d2106	-0.06891064
122	0xbd53ae9e	-0.0516802
123	0x3d968c12	0.07350935
124	0xbccf4918	-0.025303409
125	0x3d7b6dfb	0.061384182
126	0xbd36f40c	-0.044666335
127	0xbe02230f	-0.12708686
128	0x3dab25e0	0.083568335
129	0xbdd03be3	-0.101676725
130	0x3d3f7c4e	0.046749406
131	0xbd3b1253	-0.045671772
132	0x3d5a620a	0.053316154
133	0x3c6b1463	0.014348122
134	0x3ce429aa	0.027851898
135	0x3db9d114	0.090730816
136	0xbdd5f24b	-0.10446604
137	0xbd850277	-0.06494611
138	0xbdbb3ca6	-0.09142427
139	0x3d891cec	0.066949695
140	0xbd231f0d	-0.039824534
141	0xbb1b0ff4	-0.0023660632
142	0x3d3293fc	0.04359816
143	0x3d0d7886	0.03453877
144	0x3c14854f	0.009064986
145	0xbe13caf6	-0.14432892
146	0xbc80bb0a	-0.015714187
147	0x3e160dc9	0.14653696
148	0xbd44254f	-0.047887143
149	0x3d52ffe5	0.05151357
150	0x3d8934d1	0.06699527
151	0x3d3939b2	0.04522104
152	0xbd302e9a	-0.043013193
153	0xbd27050a	-0.04077629
154	0xbc757620	-0.0149817765
155	0x3e16f35c	0.14741272
156	0xbdb568b2	-0.0885786
157	0xbd06c70a	-0.032904662
158	0xbcd4f151	-0.025993975
159	0xbdb8cc26	-0.09023313
160	0x3cbd2605	0.023089418
161	0xbd6e6b1b	-0.058207612
162	0x3d367d8f	0.044553336
163	0xbd337a54	-0.043817833
164	0x3d94c63a	0.07264371
165	0x3c8b107b	0.016975632
166	0x3c967a3b	0.01836883
167	0x3cb81b7b	0.022474041
168	0xbdb021bd	-0.08600185
169	0xbddf165d	-0.10892937
170	0x3bac397a	0.005255875
171	0xbd82eb47	-0.06392532
172	0x3d981ab6	0.0742697
173	0x3d5bf8b8	0.053703994
174	0xbda856d7	-0.082196884
175	0xbd151a80	-0.036402225
176	0xbdbcf6e4	-0.09226778
177	0xbe1ca899	-0.1529869
178	0xbd81e325	-0.063421525
179	0x3e1182e3	0.14210086
180	0x3d390094	0.045166567
181	0xbd86ec43	-0.06588032
182	0x3e010a8c	0.1260168
183	0xbd3fb9a3	-0.046807896
184	0x3bddc142	0.006767423
185	0xbdddf0d7	-0.10836952
186	0xbdb53628	-0.0884822
187	0x3d897dd1	0.06713451
188	0xbddff07e	-0.10934542
189	0x3c809dae	0.015700188
190	0xbcfa0b98	-0.030523106
191	0xbca42318	-0.020036265
192	0x3dfae0fb	0.12249943
193	0x3c395662	0.011312099
194	0x3d732414	0.05936058
195	0xbe1ba24c	-0.1519863
196	0xbd6f6360	-0.05844438
197	0x3d8c9280	0.0686388
198	0x3ca482e1	0.02008194
199	0x3d3b3a2a	0.045709766
200	0x3c3f63fd	0.011681554
201	0xbdba98d4	-0.09111181
202	0xbe01a671	-0.12661149
203	0xbda9c839	-0.082901426
204	0x3d81d44c	0.063393205
205	0x3affb9ae	0.0019510293
206	0x3d0a1745	0.033713598
207	0xbd441571	-0.04787201
208	0x3c0c0cc8	0.008547969
209	0x3c7ebf87	0.015548593
210	0xbd79098b	-0.060800117
211	0x3d59b249	0.05314854
212	0x3d50d5e7	0.050985243
213	0x3c1cc275	0.009567847
214	0x3d48e7e1	0.049049262
215	0xbc161807	-0.009161002
216	0xbdd959fa	-0.10612865
217	0x3d0ceed3	0.034407448
218	0xbdb7fdfc	-0.089839906
219	0x3d9bb8ac	0.07603583
220	0xbd56c7e6	-0.05243673
221	0xbd80e60a	-0.062938765
222	0xbc8d42ce	-0.017243769
223	0xbdaeddd4	-0.08538404
224	0x3daf042d	0.08545718
225	0x3c14f07e	0.009090541
226	0x3cd97266	0.026543807
227	0xbde49291	-0.11160768
228	0xbd19b4ca	-0.03752593
229	0x3c7aea64	0.015314672
230	0xb9a60864	-0.0003166824
231	0xbc047ad0	-0.008085921
232	0xbde3bc87	-0.11119943
233	0xbddf0bf0	-0.10890949
234	0xbd5408b0	-0.051766098
235	0x3a91a2e5	0.0011111168
236	0xbd129c21	-0.035793427
237	0xbd24b393	-0.040210318
238	0xbd2b99ae	-0.041894607
239	0xbdc1fe3e	-0.09472321
240	0xbc1bbb9d	-0.00950518
241	0xbce76106	-0.028244507
242	0xbdc8ccfc	-0.09804723
243	0x3e1ac533	0.15114288
244	0x3cbb0f7a	0.022834528
245	0xbde2a3bb	-0.11066385
246	0x3c52f10a	0.012874851
247	0xbd2ec033	-0.042663764
248	0xbd47d98d	-0.048791457
249	0x3d3685c3	0.04456116
250	0xbd8cf724	-0.06883076
251	0x3dee08a6	0.11622743
252	0xbe1658a4	-0.14682251
253	0xbd898a2b	-0.067158066
254	0xbb978ff6	-0.004625316
255	0xbceb634e	-0.028733876

sequential_2/conv2d_2/Conv2D f4 [64, 3, 3, 64]
0	0x3db1abe9	0.086753674
1	0x3d82a34d	0.063788034
2	0x3c5022fd	0.012703654
3	0xbce6f151	-0.02819124
4	0xbbb28b30	-0.0054487213
5	0xbcd35c69	-0.0258009
6	0x3c85b760	0.016322792
7	0xbca7e6a5	-0.020495722
8	0xbba0593d	-0.0048934505
9	0xbd5c58c8	-0.053795606
10	0x3bc35e1e	0.0059621474
11	0x3c1f8a95	0.00973763
12	0xbba5fb3a	-0.005065349
13	0xbcc5dc1d	-0.02415281
14	0xbd6de351	-0.058078114
15	0x3d672718	0.056433767
16	0x3db409ea	0.087909535
17	0xbcdc3b25	-0.026883671
18	0x3d2cc09b	0.04217587
19	0x3c949868	0.01813908
20	0xbd677720	-0.05651009
21	0x3c4f4437	0.012650541
22	0x3d38db53	0.04513104
23	0xbd6646db	-0.056219917
24	0xbc680324	-0.014160905
25	0xbd1abfd8	-0.037780613
26	0xbd4db9d9	-0.050226066
27	0xbd36a006	-0.044586204
28	0x3c774535	0.015092184
29	0x3cc262c5	0.023728738
30	0x3d8171b1	0.06320513
31	0x3cf855eb	0.030314406
32	0xbdb0c0b5	-0.08630506
33	0xbb38dd30	-0.002820801
34	0xbd2ff28c	-0.04295592
35	0xbd1b9d5f	-0.037991878
36	0xbd63c566	-0.055608176
37	0x3d0fe9b2	0.03513498
38	0x3d04db59	0.03243575
39	0x3d95e3be	0.07318829
40	0xbc0fa3d9	-0.008767092
41	0x3bd4901c	0.0064869057
42	0x3d03e10d	0.032197047
43	0xbd59a4da	-0.05313573
44	0x3cdf9679	0.02729343
45	0xbbf43df0	-0.0074536726
46	0x3d7f4c9d	0.062328923
47	0x3b9cbd0d	0.004783279
48	0x3d4670cb	0.04844741
49	0x3d78f329	0.06077877
50	0xbbe341a8	-0.006935317
51	0x3c8608ef	0.016361682
52	0x3d434aeb	0.04767887
53	0x3b906d4b	0.00440756
54	0xbd10ac55	-0.0353206
55	0xbba7eb25	-0.005124467
56	0x3c3ec921	0.011644633
57	0x3d86e395	0.065863766
58	0x3d8c71e6	0.06857662
59	0xbd51bf53	-0.05120785
60	0xbcc1f8a7	-0.023678137
61	0x3b9c15b9	0.0047633317
62	0x3ddd23ad	0.1079782
63	0xbd86ad12	-0.06575979
64	0x3d5ad459	0.053425167
65	0xbcd1856d	-0.025576318
66	0xbb7f15a3	-0.0038922809
67	0x3d68afb5	0.056808192
68	0x3d84a33d	0.06476448
69	0xbd24dd6b	-0.040250223
70	0x3d1cf74f	0.03832179
71	0xbd57f2cd	-0.052721787
72	0x3db95b51	0.0905062
73	0xbdc6689e	-0.09687923
74	0xbd333f71	-0.043761674
75	0xbc61f21d	-0.013790634
76	0xbd555cc3	-0.052090418
77	0xbdb082d5	-0.08618704
78	0xbd50084c	-0.050789163
79	0xbb8332ec	-0.004003873
80	0x3c668c55	0.014071544
81	0x3b55be2c	0.0032614572
82	0x3c62de48	0.013846941
83	0xbc879056	-0.016548317
84	0x3ccda3c1	0.025102498
85	0xbc068b78	-0.008211963
86	0x3d2a4618	0.041570753
87	0x3d1abaae	0.037775688
88	0xbcabf4b9	-0.020990716
89	0x3d52a883	0.051430237
90	0xbaa54d70	-0.0012611579
91	0xbc5234c5	-0.012829964
92	0x3d208951	0.039193455
93	0x3cacf629	0.021113472
94	0x3d2b4694	0.041815355
95	0xbcec37f5	-0.028835276
96	0x3cb359f1	0.021893473
97	0xbc8fddbe	-0.01756179
98	0xbdd7d1df	-0.105380766
99	0xbd6b00f4	-0.057373956
100	0x3c623dd8	0.01380869
101	0xbc3827ea	-0.011239985
102	0xbd9bcb4a	-0.07607134
103	0x3b9b88de	0.0047465404
104	0xbda0683f	-0.07832383
105	0x3cbe986b	0.023266038
106	0xbc838706	-0.016055595
107	0xbd84ebf3	-0.06490316
108	0x3d41d671	0.047323648
109	0x3c0314a2	0.008000525
110	0x3d69418e	0.056947283
111	0xbd19f956	-0.0375913
112	0xbd9112b7	-0.07083648
113	0x3d8973e6	0.06711559
114	0x3d3235bf	0.043508288
115	0x3d196072	0.037445493
116	0xbcba6230	-0.022751898
117	0x3d10a6ec	0.03531544
118	0xbabeac1d	-0.0014547143
119	0xbb3a0980	-0.002838701
120	0xbac48ff5	-0.0014996516
121	0xbd70e5d0	-0.058812916
122	0x3c921eba	0.017836917
123	0xbc5233f1	-0.012829767
124	0x3d80ae52	0.06283249
125	0x3d05428f	0.03253418
126	0x3d7bb536	0.061452113
127	0x3d29e9bc	0.041482672
128	0xbda52463	-0.08063581
129	0x3d4a46f6	0.04938408
130	0x3dc586eb	0.09644874
131	0xbcb4d764	-0.022075363
132	0xbd2795eb	-0.040914457
133	0xbd8e39f2	-0.06944646
134	0x3d9fe17d	0.0780668
135	0xbd97fc12	-0.074211255
136	0x3db6511b	0.089021884
137	0xbc9caa2b	-0.019124111
138	0xbd643cb0	-0.05572194
139	0xbcc17618	-0.023615882
140	0xbd3857b4	-0.045005515
141	0x3c90290d	0.0175977
142	0xbcc80bb9	-0.024419652
143	0x3b4a29c1	0.0030847641
144	0xbd32bf5c	-0.043639526
145	0xbc26856f	-0.010163649
146	0xbd2adfa5	-0.04171719
147	0x3c5678a7	0.013090289
148	0xbc44358a	-0.011975655
149	0xbd76eed5	-0.06028636
150	0x3d9ed800	0.077560425
151	0x3d30b5ff	0.043142315
152	0x3d8e04fb	0.06934544
153	0x3cf902b1	0.030396791
154	0x3d88445e	0.06653665
155	0x3cf78a2f	0.030217258
156	0xbcb3669e	-0.021899518
157	0x3da5a491	0.08088029
158	0xbd5d588c	-0.054039523
159	0xbc9365d2	-0.017992888
160	0x3d4e9d16	0.050442778
161	0xbd321ad2	-0.04348261
162	0xbda5e531	-0.081003554
163	0xbd9081e5	-0.070560254
164	0xbd7194ef	-0.058979925
165	0xbd51cb83	-0.051219475
166	0xbb55fd72	-0.0032652286
167	0x397f2318	0.00024331769
168	0x3d598102	0.053101547
169	0x3d545cb2	0.051846214
170	0xbb2782db	-0.0025560174
171	0xbd3690ac	-0.044571564
172	0x3d1ac514	0.037785605
173	0xbd83253f	-0.064035885
174	0x3d2f968e	0.04286819
175	0xbcc72510	-0.024309665
176	0xbda95aae	-0.08269249
177	0x3cbc5494	0.022989549
178	0x3d253190	0.04033047
179	0xbb7e529e	-0.0038806568
180	0xbc35cc81	-0.011096121
181	0x3d331698	0.04372272
182	0x3caa5078	0.020790324
183	0xbcde7e85	-0.027159939
184	0x3cae5bac	0.021283947
185	0xbd822537	-0.063547544
186	0xbc593d26	-0.013259208
187	0xbd2dc31b	-0.042422395
188	0xbcbceb87	-0.023061527
189	0xbd84845d	-0.06470559
190	0xbd884bc1	-0.06655074
191	0xbd46a1dc	-0.048494205
192	0x3c0baabd	0.008524594
193	0xba06b358	-0.00051384186
194	0x3da341b9	0.0797152
195	0x3c3719af	0.011175557
196	0x3d3f8a77	0.04676291
197	0xbdc4ce5d	-0.09609673
198	0x3cc184b1	0.023622843
199	0xbdee1fc7	-0.11627155
200	0x3dc11c8e	0.094292745
201	0xbdca23d5	-0.09870116
202	0x3cc66a74	0.024220683
203	0xbd2e32dc	-0.042528972
204	0xbd8e3a75	-0.069447435
205	0xbd0af2b1	-0.033922855
206	0xbcec7464	-0.028864093
207	0x3d4bc75f	0.049750682
208	0xbccc1cc7	-0.024916066
209	0xbd862cc3	-0.06551506
210	0x3d7bd001	0.061477665
211	0x3c958358	0.018251106
212	0xbd7f91ab	-0.06239478
213	0xbc22a804	-0.009927753
214	0x3d10b660	0.035330176
215	0x3d8c98b7	0.068650655
216	0x3bf69ccf	0.0075260173
217	0xbd3341eb	-0.043764036
218	0xbc1ef03b	-0.00970083
219	0xbd7cd88f	-0.061729964
220	0xbcde8e06	-0.027167331
221	0xbd308bf3	-0.043102216
222	0x3c640bb6	0.013918808
223	0x3c76e246	0.015068596
224	0xbb5c258e	-0.003359172
225	0x3d87dddf	0.066341154
226	0xbd5e152a	-0.054219402
227	0xbe02e094	-0.12780982
228	0xbcf990fa	-0.030464638
229	0x3bfa78e7	0.007643807
230	0x3bc54b8b	0.0060209683
231	0x3d31c373	0.043399286
232	0x3cdaf485	0.026727924
233	0x3cf15154	0.029457726
234	0x3d87fba8	0.066397965
235	0x3d807fe5	0.06274394
236	0x3cc5f484	0.024164446
237	0x3cd0fd9d	0.025511557
238	0xbbbe359d	-0.005804731
239	0xbd14c733	-0.036322784
240	0x3d38e8bf	0.04514384
241	0xbab797d6	-0.0014007043
242	0x3d76cf97	0.060256567
243	0x3d3ad2fc	0.045611367
244	0x392b6fab	0.0001634943
245	0x3c2b8854	0.010469515
246	0x3c7b05c9	0.0153212035
247	0xbc4e3793	-0.012586492
248	0x3c2a604b	0.010398935
249	0xba835599	-0.0010020017
250	0x3cc9347c	0.02456116
251	0x3c9b67e2	0.018970434
252	0x3d8f65d2	0.070018426
253	0xbb2b04c9	-0.0026095381
254	0x3d323a6b	0.043512743
255	0x39bc4c96	0.00035915215

sequential_2/conv2d_3/Conv2D f4 [64, 3, 3, 64]
0	0xbce085df	-0.027407585
1	0x3d628be8	0.055309206
2	0xbd1f10d8	-0.038834423
3	0x3c04de22	0.008109601
4	0x3dcd3edd	0.10021756
5	0x3d9293c8	0.07157093
6	0xbd11b039	-0.03556845
7	0xbde180c1	-0.11010886
8	0xbd6dda0e	-0.05806928
9	0x3d718807	0.058967616
10	0xbd8066d8	-0.06269616
11	0x3d8befa6	0.06832819
12	0xbdc57500	-0.096414566
13	0xbd952542	-0.07282497
14	0x3d67e92c	0.056618854
15	0xbd8defd5	-0.0693051
16	0xbd97d697	-0.07413977
17	0xbda1a5a2	-0.0789292
18	0xbd891cef	-0.06694972
19	0x3d122e25	0.035688538
20	0x3d13f21e	0.036119573
21	0xbcff7344	-0.031182893
22	0xbe00beb2	-0.12572744
23	0x3ca6db41	0.02036822
24	0x3d4fb557	0.05071005
25	0x3e68e30f	0.22742866
26	0x3d59b591	0.05315167
27	0xbd5d52f6	-0.054034196
28	0x3d232f5f	0.0398401
29	0x3e0bf1a4	0.13666397
30	0xbdba2e6d	-0.09090886
31	0xbe0ff731	-0.1405914
32	0x3b2f7246	0.0026770993
33	0xbcc7f4b5	-0.024408678
34	0xbd875899	-0.066086955
35	0x3dead649	0.11466653
36	0x3e1306d0	0.14358068
37	0x3d85c3c5	0.06531481
38	0x3dcd465f	0.10023188
39	0xbe0d3e4e	-0.13793299
40	0xbdb23d72	-0.08703126
41	0xbd2d6d5f	-0.042340633
42	0x3d22baa3	0.039728772
43	0xbda73954	-0.08165231
44	0x3e1dc62c	0.15407628
45	0x3ca6bd23	0.02035386
46	0x3c00d2ca	0.007862756
47	0x3d43f036	0.047836505
48	0x3d1be73f	0.03806233
49	0x3bdc80ef	0.0067292373
50	0xbd58ce85	-0.052931327
51	0x3d71a847	0.058998372
52	0xbc61c745	-0.01378042
53	0xbd037816	-0.032096945
54	0xbdb4ba97	-0.08824652
55	0x3cbb7222	0.022881571
56	0x3cbabf3d	0.022796268
57	0xbc40b475	-0.011761774
58	0xbdeb0839	-0.11476178
59	0x3c809d1f	0.015699921
60	0xbd937170	-0.07199371
61	0x3bbdaa90	0.005788155
62	0xbdb35c82	-0.08757879
63	0x3d8a1c5a	0.06743689
64	0xbd2d8e87	-0.042372253
65	0x3da56819	0.08076496
66	0xbd99a92e	-0.075029716
67	0xbd3f61ca	-0.04672412
68	0x3d281dc9	0.04104403
69	0x3d4b0864	0.04956855
70	0xbd20cb3f	-0.03925633
71	0xbd0bb55e	-0.034108512
72	0x3cf15a97	0.029462142
73	0x3c819d53	0.015822088
74	0xbd3022e8	-0.04300204
75	0x3e15afe3	0.14617877
76	0xbd9d8ba1	-0.07692648
77	0x3c9d4cc2	0.01920164
78	0xbd10b4bd	-0.035328615
79	0xbe032901	-0.1280861
80	0xbcfa34ce	-0.030542757
81	0xbd46d7a9	-0.048545513
82	0xbc923c47	-0.017851008
83	0x3d1b96f8	0.037985772
84	0x3dc17420	0.09445977
85	0xbcc54ecf	-0.02408543
86	0xbd0224bb	-0.03177331
87	0xbd11efd1	-0.035629097
88	0xbd9aadfd	-0.07552717
89	0x3bcf2e7f	0.0063226814
90	0xbd5c9306	-0.05385115
91	0x3c79711d	0.015224722
92	0x3d3f8d0a	0.046765365
93	0x3e161a8a	0.14658561
94	0xbdea9196	-0.114535496
95	0x3cb71b32	0.022351835
96	0xbd55d464	-0.052204505
97	0xbd9995dc	-0.074992865
98	0xbddac7af	-0.10682618
99	0x3cefbed8	0.029265806
100	0x3d9e25c2	0.077220455
101	0x3c7ee831	0.015558288
102	0x3c99fd67	0.01879759
103	0xbcb5ee31	-0.022208305
104	0xbbca33d2	-0.0061707282
105	0xbd8907df	-0.066909544
106	0x3cd9cded	0.02658745
107	0xbda41efc	-0.08013722
108	0x3da1e022	0.07904078
109	0xbd9c1d2d	-0.07622752
110	0xbe2d5415	-0.16926606
111	0x3ce8cab3	0.028416967
112	0x3d109125	0.03529467
113	0xbb08fbc4	-0.0020902017
114	0xbddde0c0	-0.10833883
115	0x3d4d1f7e	0.05007886
116	0xbdbac50f	-0.09119617
117	0x3d749c19	0.05971918
118	0xbc94dc69	-0.018171506
119	0x3cc19739	0.023631679
120	0x3d6def98	0.058089823
121	0x3d08b990	0.03338009
122	0xbd49c461	-0.049259547
123	0x3d87eaa4	0.06636551
124	0xbd119fbb	-0.03555272
125	0x3d289d62	0.041165717
126	0xbc29f61b	-0.0103736175
127	0xbcd5cef6	-0.026099663
128	0x391b412d	0.00014806232
129	0xbda0e04b	-0.078552805
130	0x3a67a8ab	0.0008837084
131	0x3c9918bf	0.018688558
132	0x3d87b4bb	0.066262685
133	0xbcac9f86	-0.02107216
134	0x3da3f75c	0.080061644
135	0xbe0c360b	-0.13692491
136	0xbe05cf3d	-0.13067336
137	0x3cad81da	0.021180082
138	0x3d233601	0.039846424
139	0x3c647707	0.013944394
140	0xbd1080a6	-0.03527894
141	0x3d191977	0.0373778
142	0xbba806ea	-0.0051277773
143	0x3d3c3de2	0.045957454
144	0xbd95f80b	-0.07322701
145	0xbd984290	-0.07434571
146	0x3d22027e	0.039553158
147	0x3d7a9f8b	0.06118731
148	0x3c9ef7f3	0.01940534
149	0xbd566491	-0.052342
150	0xb9d8153a	-0.00041214545
151	0xbd039b33	-0.03213043
152	0x3d08ebe2	0.03342808
153	0x3cceb65f	0.025233446
154	0x3d812172	0.06305207
155	0xbdae2af0	-0.085042834
156	0x3d02bc90	0.03191811
157	0x3e0c11b6	0.13678631
158	0xbe0d62a1	-0.13807155
159	0xbd438556	-0.04773458
160	0xbdc0160d	-0.09379206
161	0xbd732b69	-0.05936757
162	0xbdbff1d6	-0.093722984
163	0x3d95d79d	0.073165156
164	0xbc8867ca	-0.016651053
165	0xbd17b0cb	-0.037033837
166	0xbd96ce2a	-0.073635414
167	0xbdb4563b	-0.0880551
168	0xbd8a78c0	-0.067613125
169	0xbd79df59	-0.061004017
170	0x3c5560fa	0.013023609
171	0xbd7e98f7	-0.062157597
172	0x3e0c35cd	0.13692398
173	0xbd65537c	-0.05598782
174	0xbda6d9ab	-0.081469856
175	0x3c032fa5	0.008006965
176	0x3cab1121	0.020882191
177	0x3d8304ca	0.06397398
178	0xbe2a07eb	-0.16604583
179	0xbd340356	-0.043948494
180	0xbd248bfd	-0.040172566
181	0xbd0bd141	-0.034135107
182	0xbcdd86ce	-0.027041819
183	0x3c16355f	0.009167998
184	0x3c70dd9f	0.014701276
185	0x3d4392b6	0.047747336
186	0x3c3b6b6b	0.011439185
187	0xbd74fcd3	-0.059811424
188	0xbb99b2b5	-0.004690493
189	0xbe1d33b6	-0.15351757
190	0xbd26e54e	-0.040746026
191	0xbd0156a8	-0.031576782
192	0x3cbb16bd	0.02283799
193	0xbda2207b	-0.079163514
194	0x3cbe82b8	0.023255691
195	0x3cb9f31b	0.02269893
196	0x3ca09d55	0.019606272
197	0x3cc56771	0.024097176
198	0x3d922f58	0.07137936
199	0x3c20fe18	0.009826206
200	0x3c48ba05	0.012251382
201	0x3c3fbba3	0.011702451
202	0x3c3cb407	0.011517531
203	0x3dc254b1	0.0948881
204	0xbe0cd2da	-0.13752308
205	0xbd10ccdc	-0.03535162
206	0xbc047f1a	-0.008086944
207	0xbd2b0039	-0.04174826
208	0xbdb1901c	-0.08670065
209	0x3cd55f9a	0.026046563
210	0x3b575ab5	0.0032860462
211	0x3d3e662f	0.04648417
212	0x3d57a037	0.052643027
213	0xbd0713bc	-0.032977805
214	0xbcb50d81	-0.022101166
215	0xbdada388	-0.08478457
216	0xbd7cb7b1	-0.06169862
217	0x3ddccece	0.10781632
218	0xbd705bb7	-0.058681216
219	0xbd8896c2	-0.0666938
220	0xbc339b45	-0.010962312
221	0x3e1f6fc8	0.15569985
222	0xb9c4df57	-0.00037550434
223	0xbcaf7bd7	-0.021421356
224	0xbc8c8972	-0.017155383
225	0xbcb8a1c7	-0.022538079
226	0xbd73c8f5	-0.05951782
227	0xbcba6112	-0.022751365
228	0x3c298d6e	0.010348661
229	0x3c182f26	0.009288585
230	0xbb87f221	-0.004148737
231	0xbda73342	-0.081640735
232	0x3ca42fd6	0.020042341
233	0xbc9f5891	-0.019451411
234	0xbd9843f4	-0.07434836
235	0xbd9b4ec5	-0.075833835
236	0x3d6c0d8c	0.057630107
237	0xbd1743fa	-0.036930062
238	0x3c31da27	0.010855234
239	0xbd6abbb7	-0.057307925
240	0xbd99286d	-0.07478414
241	0xbd43180f	-0.047630366
242	0x3cc31f62	0.023818675
243	0x3d7855a4	0.06062855
244	0xbd5bc3a6	-0.05365338
245	0x3bf0b405	0.0073456788
246	0x3cf90f6d	0.030402863
247	0x3d15a32a	0.03653256
248	0x3d70e2ba	0.058809973
249	0xbd6bda7e	-0.057581417
250	0xbd6b57ca	-0.05745677
251	0xbd8538ce	-0.06504975
252	0x3c966661	0.018359365
253	0xbd18fa73	-0.037348222
254	0xbd875810	-0.066085935
255	0x3b03a4ab	0.0020087163

sequential_2/conv2d_4/Conv2D f4 [64, 3, 3, 64]
0	0xbca7418b	-0.020416996
1	0x3d032917	0.03202161
2	0x3d87ae86	0.066250846
3	0xbd3d198e	-0.04616695
4	0xbbbbcaae	-0.0057309484
5	0xbd87c123	-0.06628635
6	0x3d06ac8a	0.03287939
7	0xbd88452e	-0.0665382
8	0xbc177d7c	-0.009246226
9	0xbbe32148	-0.0069314577
10	0x3c859baa	0.016309578
11	0x3d533a8c	0.051569507
12	0x3c667d73	0.014067995
13	0xbcd5de41	-0.026106955
14	0x3c97cf4f	0.01853147
15	0x3c5e748b	0.013577591
16	0xbb4c9655	-0.0031217535
17	0x3d72b34e	0.05925303
18	0xbd7f4ecf	-0.062331017
19	0xbd92d1f8	-0.071689546
20	0xbd8fed6b	-0.07027706
21	0x3d73dd18	0.059537023
22	0xbd8153f5	-0.06314842
23	0xbcfc0b09	-0.03076698
24	0xbd7528b6	-0.059853278
25	0xbd68c943	-0.056832563
26	0xbd29d28c	-0.04146056
27	0x3d44015d	0.047852863
28	0x3ad08030	0.0015907343
29	0x3d893a95	0.06700627
30	0xbc8bcd67	-0.017065717
31	0xbd6555ce	-0.055990033
32	0x3d293936	0.041314326
33	0xbc973d58	-0.018461868
34	0x3ce48c18	0.027898833
35	0x3c895c10	0.016767532
36	0xbd37b92c	-0.044854328
37	0x3c6762eb	0.014122705
38	0xbb41e4bf	-0.0029585806
39	0x3c316514	0.010827322
40	0xbd60be3e	-0.05486893
41	0x3d266c07	0.040630367
42	0x3d32e654	0.04367669
43	0x3ad61e5e	0.0016335954
44	0x3ca13ff4	0.019683816
45	0xbd0d72da	-0.03453336
46	0x3c7c93eb	0.015416126
47	0x3c337858	0.010953985
48	0xbcc723e4	-0.024309106
49	0x3d9bf3b6	0.076148435
50	0xbbd80ff3	-0.006593698
51	0x3d2842ac	0.04107921
52	0x3d086e7d	0.033308495
53	0x3d665f81	0.056243423
54	0x3d98eddd	0.07467244
55	0xbd9af915	-0.0756704
56	0x3d3bda66	0.045862578
57	0xbc2e271d	-0.0106294425
58	0x3d3e153f	0.04640698
59	0xbd5895de	-0.0528773
60	0x3c294f56	0.010333857
61	0xbd0a524c	-0.03376989
62	0x3c243e73	0.010024655
63	0xbd7081da	-0.058717586
64	0x3d5d12aa	0.053972878
65	0xbbdaffaf	-0.006683312
66	0x3d3d13ee	0.046161585
67	0x3d21661e	0.039404027
68	0x3c96cb2f	0.018407432
69	0xbd1e1a1a	-0.03859911
70	0xbd9ac150	-0.07556403
71	0xbd961248	-0.073277056
72	0xbd22027c	-0.03955315
73	0x3d735599	0.059407804
74	0xbd52cc31	-0.051464263
75	0xbd956733	-0.07295074
76	0x3d8dfe57	0.06933277
77	0x3c9cfc45	0.01916326
78	0xbd3fd3b1	-0.046832744
79	0xbc08c97e	-0.008348821
80	0xbcb606ba	-0.022220004
81	0xbcda1f9a	-0.026626397
82	0x3c576033	0.013145494
83	0xbb95bd0e	-0.004569656
84	0x3d6092be	0.054827444
85	0xbba830c3	-0.005132766
86	0xbcc572ed	-0.024102652
87	0xbdd1c747	-0.10243087
88	0xbd9f5999	-0.07780761
89	0xbc79376d	-0.015210968
90	0x3d9d5739	0.07682652
91	0xbbf8ed3d	-0.0075966404
92	0x3d5ac0a2	0.053406365
93	0xbd2bc2c9	-0.04193381
94	0xbda03311	-0.0782224
95	0xbcc82365	-0.02443094
96	0xbd2ae265	-0.041719813
97	0x3c532359	0.0128868455
98	0xbca025d1	-0.019549282
99	0x3c16189b	0.00916114
100	0xbc8410e0	-0.016121328
101	0xbd07bcb6	-0.033138953
102	0x3dacfffa	0.08447261
103	0xbc64bc85	-0.013960962
104	0x3c990ebb	0.018683782
105	0xbaa99af1	-0.0012939853
106	0x3c86c6e3	0.016452258
107	0xbd24e365	-0.040255923
108	0xbd1807b8	-0.037116736
109	0xbdc662c1	-0.096868046
110	0x3abfb5c1	0.001462631
111	0xbd81db44	-0.0634065
112	0xbcc6f6a1	-0.024287524
113	0xbd7c5dcd	-0.061612893
114	0x3d388bef	0.045055326
115	0xbdb30fa1	-0.08743215
116	0x3d0c92e3	0.03431977
117	0x3d6a863f	0.057256933
118	0xbd198c84	-0.03748752
119	0x3b01d09a	0.0019808174
120	0xbd591531	-0.052998725
121	0xbd322240	-0.043489695
122	0x3d35c12d	0.04437368
123	0x3c325ac3	0.010885897
124	0xbd78796e	-0.06066268
125	0xbda9c4e8	-0.0828951
126	0xbc19361d	-0.0093512805
127	0xbd856609	-0.06513602
128	0x3d20f034	0.039291576
129	0xbdc927f7	-0.09822076
130	0x3d598351	0.05310375
131	0x3d284b29	0.041087303
132	0xbbfdb858	-0.0077429228
133	0x3d575d0b	0.052578967
134	0x3d536f7f	0.051620003
135	0x3d793f76	0.060851537
136	0x3d466edc	0.048445567
137	0x3d89d8ab	0.06730779
138	0x3d924492	0.07141985
139	0xbcd8aea7	-0.026450468
140	0xbc790964	-0.015199993
141	0xbd0d1588	-0.034444362
142	0xbdaafcd7	-0.083490066
143	0x3c874cff	0.016516207
144	0xbcea1ed6	-0.028579157
145	0xbd03ad26	-0.03214755
146	0xbd8aa87f	-0.06770419
147	0xbdc2ca00	-0.09511185
148	0xbda0415c	-0.07824966
149	0xbd8f2131	-0.06988753
150	0xbd916b84	-0.07100585
151	0xbdce434c	-0.100714296
152	0x3d244169	0.040101442
153	0xbb614827	-0.0034375282
154	0xbd619526	-0.05507388
155	0x3cac5479	0.021036373
156	0xbc705db6	-0.01467078
157	0xbd746a85	-0.059671897
158	0x3c9b9aa1	0.018994631
159	0x3d1b9326	0.03798213
160	0xbc3dc9c2	-0.011583747
161	0xbd5e58bb	-0.05428384
162	0x3d3e4608	0.046453506
163	0xbc7ef376	-0.015560975
164	0xbdd18eb2	-0.10232295
165	0xbd935856	-0.07194583
166	0x3ce80f93	0.028327739
167	0x3d7f4e5a	0.06233058
168	0x3c62910f	0.01382853
169	0x3d0b9ec7	0.03408697
170	0xbc96f8d8	-0.018429205
171	0x3c9a0f72	0.018806193
172	0xba22dc04	-0.00062125945
173	0xbcf8c896	-0.030369084
174	0x3bdeb83f	0.006796866
175	0x3cab8bd2	0.020940695
176	0xbc8ccd08	-0.01718761
177	0xbcb0c2fe	-0.021577355
178	0xbd28e4d7	-0.041233864
179	0xbd95f85b	-0.07322761
180	0x3cb10767	0.021609975
181	0x3d37e3dd	0.04489504
182	0xbd6d26e5	-0.05789842
183	0xbda0aee7	-0.0784586
184	0x3c93d5de	0.018046316
185	0xbd56f5c2	-0.052480467
186	0x3c950c08	0.018194214
187	0xbd730d31	-0.059338752
188	0xbda01078	-0.07815641
189	0xbd9ff151	-0.07809699
190	0xbca4f61f	-0.020136891
191	0xbd23cd83	-0.039990913
192	0x3c090200	0.008362293
193	0x3d82216b	0.0635403
194	0x3d8b8dc5	0.0681415
195	0xbd8a50f4	-0.06753722
196	0x3cf5aefa	0.029990662
197	0x3d77125b	0.06032024
198	0x3c2f9766	0.010717249
199	0x3cd7305d	0.026268179
200	0xbc79972c	-0.015233796
201	0x3acc2d3a	0.0015577443
202	0x3d68f2c8	0.05687216
203	0xbc58e7ab	-0.013238828
204	0x3cc42d35	0.023947338
205	0x3d357c6d	0.044308115
206	0xbd9c5372	-0.076331034
207	0x3d804525	0.06263188
208	0xbad94dd7	-0.0016578984
209	0x3bcae56a	0.006191899
210	0xbd82d907	-0.06389051
211	0xbd0d4f10	-0.034499228
212	0xbda1390e	-0.078722104
213	0x3c54c3c3	0.012986126
214	0x3c509fef	0.012733444
215	0x3d66d1dc	0.05635248
216	0xbd8885dd	-0.066661574
217	0xbc9de6b7	-0.019275052
218	0x3d7239ca	0.059137143
219	0xbc1f09fe	-0.009706972
220	0x3d8d867f	0.06910419
221	0x3d23fd85	0.040036697
222	0xbd89d986	-0.067309424
223	0x3d2203ec	0.03955452
224	0xbceab7a5	-0.028652022
225	0x3bbb73ce	0.005720592
226	0xbca00f5d	-0.019538576
227	0x3d3c6a38	0.045999736
228	0xbda257c5	-0.07926897
229	0x3d02dbcf	0.031947907
230	0x3d6e9a48	0.058252603
231	0xbd65f84e	-0.056145005
232	0x3cfb1c7f	0.030653236
233	0xbd306f33	-0.043074798
234	0xbb700565	-0.003662431
235	0xbd6a47c2	-0.05719734
236	0xbcfb3ce5	-0.030668685
237	0xbd62b450	-0.05534774
238	0x3d62c00b	0.055358928
239	0xbdbcdd06	-0.092218444
240	0xbd4caf09	-0.049971614
241	0xbc851871	-0.016247006
242	0xbd5d10af	-0.05397099
243	0x3c53bd33	0.012923527
244	0x3c76721f	0.015041857
245	0xbd765e10	-0.0601483
246	0xbd27bed5	-0.040953476
247	0xbdcf23a1	-0.101142175
248	0x3d75f435	0.060047347
249	0xbc2729ba	-0.0102028195
250	0x3c120fb1	0.008914874
251	0xbd1ebf92	-0.038756914
252	0x3d699535	0.05702706
253	0x3d1a4f03	0.037673008
254	0x3d1fde30	0.039030254
255	0x3ce4ec74	0.02794478
